mnist_model.pth (torch, 440112 bytes, 6 tensors)

fc1.weight f4 [128, 784]
0	0x3bc1cb62	0.0059141377
1	0x3cc8f684	0.02453161
2	0x3c8c171c	0.017100863
3	0xbcdb3464	-0.02675838
4	0xbcfede58	-0.031111881
5	0x3cd6898b	0.026188632
6	0x37076f6e	8.072571e-06
7	0xbc91a2bf	-0.017777799
8	0xbc59ec6f	-0.013300999
9	0xbcd328f8	-0.025776371
10	0xbc0582ce	-0.008148862
11	0xbc018ce8	-0.00790713
12	0x3cb39b2e	0.021924581
13	0x3c600feb	0.01367567
14	0x393ca4ed	0.00017990517
15	0xbcc81cfc	-0.024427883
16	0xbd1162aa	-0.035494484
17	0x3cb9ac37	0.022665126
18	0xbcf7f066	-0.030265998
19	0xbc4b1553	-0.012395221
20	0xbcd2b5c8	-0.025721446
21	0x3d03fcf4	0.032223657
22	0x3c6980de	0.014251916
23	0x3c08ebbc	0.008356985
24	0xbd0c996a	-0.034325995
25	0x3d01f182	0.03172446
26	0x3bb85cb4	0.0056262854
27	0x3c250d97	0.010074041
28	0x3caebe22	0.021330897
29	0x3c68ee2e	0.014216943
30	0xbce5cc71	-0.028051587
31	0xbccf9a66	-0.025342178
32	0xbc14e3e4	-0.0090875365
33	0x3c8292bb	0.015939107
34	0xbb263ff3	-0.0025367707
35	0x3b4c1a37	0.0031143555
36	0x3c97141a	0.018442202
37	0xbb826b7e	-0.003980099
38	0x3ce90caa	0.028448422
39	0xbc9fe0bc	-0.019516341
40	0x3bab266a	0.005223085
41	0x3c188be0	0.009310693
42	0xbcdb4def	-0.02677056
43	0xbbec289e	-0.0072069904
44	0x3bac62b9	0.005260792
45	0x3bd2e383	0.006435813
46	0x3ccc2317	0.024919076
47	0xbd0cdc57	-0.03438982
48	0xbcb40d9f	-0.021979151
49	0x3cd589cf	0.026066689
50	0xbd088ee3	-0.033339392
51	0xbd113765	-0.03545322
52	0xbcc611bf	-0.024178384
53	0x3cd2194e	0.025646832
54	0x3c2cdb8e	0.010550393
55	0x3c78f281	0.015194536
56	0x3bb562a0	0.0055354387
57	0xbb96c226	-0.004600781
58	0x3c687b66	0.014189577
59	0x3b879a74	0.0041382853
60	0x3cccaa42	0.024983529
61	0xbcfc7931	-0.030819507
62	0x3cdb6129	0.026779728
63	0x3c2d702c	0.010585826
64	0x3d0705fe	0.0329647
65	0xbc490a7e	-0.012270568
66	0xbcc55f08	-0.024093166
67	0xbc2c1b27	-0.0105045205
68	0x3cce35e9	0.02517219
69	0x3caec76d	0.021335328
70	0xbc9b7957	-0.018978758
71	0xbbb55382	-0.0055336365
72	0xbd0a8e0c	-0.033826873
73	0x3c96f435	0.018426994
74	0xb9ea1351	-0.0004464635
75	0x3c8329a8	0.016011074
76	0x3c7d9ef9	0.015479797
77	0xbb6826c4	-0.0035423497
78	0xbd01f68f	-0.031729277
79	0x3cd0e19b	0.025498202
80	0x3d033d7e	0.032041065
81	0x3cc82ca4	0.024435349
82	0x3cf3012b	0.029663643
83	0x3bc8fc59	0.006133598
84	0xbc1144d0	-0.008866504
85	0x3a93543e	0.0011240316
86	0xbba53644	-0.0050418694
87	0xbcda6a17	-0.026661916
88	0x3cf0cae8	0.029393628
89	0xbcae54ad	-0.021280611
90	0xbceae802	-0.028675083
91	0xbb687cbd	-0.003547474
92	0x3c339f1d	0.0109632285
93	0x3ce1dc5b	0.027570894
94	0x3baee6cb	0.0053375713
95	0x3d387a84	0.045038715
96	0x3cbeba54	0.023282208
97	0x3cc7f0b6	0.024406772
98	0x3d07d2c1	0.033159975
99	0x3b8e4dbd	0.004342763
100	0x3cdff0ad	0.027336443
101	0x3cb3442f	0.021883098
102	0xbcb90670	-0.022586077
103	0xbc81b44d	-0.015833044
104	0xbcbfd8c1	-0.023418786
105	0xbc76b148	-0.015056916
106	0x3ca9b8fd	0.020718092
107	0xbc1db767	-0.009626246
108	0x3bb83a26	0.005622166
109	0xbb034b5c	-0.0020033931
110	0x3c616aaf	0.0137583455
111	0x3c64939c	0.013951208
112	0x3cab98e4	0.020946927
113	0xbd0b039c	-0.03393899
114	0xbbdbc74b	-0.006707107
115	0x3c7416b7	0.014897994
116	0xbc52b1ac	-0.012859743
117	0xbd11299e	-0.03544008
118	0x3acd60f3	0.0015669152
119	0xbcee8ffb	-0.02912139
120	0x3d16b0d4	0.03678973
121	0x3c897ae8	0.01678224
122	0xbc6a7f30	-0.01431255
123	0xbb012b87	-0.0019709782
124	0x3c00b440	0.007855475
125	0x3cfe0928	0.031010225
126	0x3cc57ef4	0.024108388
127	0x3ce1a4ca	0.027544398
128	0xbd0513e5	-0.032489676
129	0x3b6600fa	0.0035095797
130	0x3cab79a8	0.020932034
131	0x3c6b7367	0.014370776
132	0x3b14c769	0.0022701866
133	0xbd39132f	-0.04518431
134	0xbc84f9e2	-0.016232435
135	0xbc066f01	-0.008205176
136	0xbce81a26	-0.028332781
137	0xbb2c36a2	-0.002627768
138	0xbc8e4878	-0.01736854
139	0xbce348a0	-0.027744591
140	0xbcffd9ff	-0.031231878
141	0x3c5e8f05	0.013583903
142	0x3c88d3b4	0.01670251
143	0xbbd93606	-0.0066287545
144	0xbad5cb8b	-0.0016311271
145	0x3c8c744a	0.017145295
146	0x3cdba704	0.026813038
147	0xbbabbf0f	-0.005241282
148	0x3b2aa665	0.002603912
149	0x3ccce195	0.02500991
150	0x3cba2cff	0.022726534
151	0xbbbb6a27	-0.0057194415
152	0x3d0029a4	0.03128971
153	0x3d06d77f	0.032920357
154	0xbcb60c85	-0.022222767
155	0x3c78ff55	0.015197595
156	0x3d15e016	0.036590658
157	0x3ccf71a9	0.025322752
158	0xbcf260ab	-0.02958711
159	0xbd0356af	-0.03206509
160	0x3bfe5b90	0.00776238
161	0x3b371e3d	0.0027941607
162	0xbcd764aa	-0.026293118
163	0xbc7b9be3	-0.0153569905
164	0xbcd5a535	-0.026079753
165	0x3cb4f227	0.022088123
166	0x3c8fb3bc	0.017541759
167	0x3d059a03	0.03261758
168	0x3c911d59	0.01771419
169	0x3d0b6101	0.034028057
170	0x3c99903d	0.018745536
171	0x3cb62125	0.022232601
172	0x3c65159d	0.013982204
173	0xbc1a32ba	-0.009411508
174	0xbc7d40a1	-0.015457303
175	0x3d13b34a	0.036059655
176	0xbc8613ff	-0.016366957
177	0x3c53962b	0.012914221
178	0x3c7c7a5e	0.015410034
179	0xbc34700f	-0.011013045
180	0xbb3b5f26	-0.0028590648
181	0x3cb8df31	0.022567363
182	0x3d119997	0.035546865
183	0xbd0c6424	-0.03427519
184	0x3c9b5d53	0.018965399
185	0x3c386b73	0.011256087
186	0x3ccbddb4	0.02488599
187	0x3cbe4a63	0.02322883
188	0xbc8ddcfe	-0.017317291
189	0xbcebfaa9	-0.028806048
190	0x3c96dc2b	0.018415531
191	0x3ba1cb3f	0.004937559
192	0xbd194c6e	-0.037426405
193	0xbbfd3f01	-0.007728458
194	0xbd150c27	-0.036388543
195	0x3cae71f7	0.021294577
196	0xbba01f68	-0.0048865564
197	0xbcb158f2	-0.021648858
198	0xbd005871	-0.031334344
199	0x3c117eaa	0.008880297
200	0x3bf6eb1e	0.0075353524
201	0x3b25e58c	0.0025313823
202	0x3d0804a9	0.03320757
203	0xba69a155	-0.0008912285
204	0x3c843a17	0.01614098
205	0xbc27f5ce	-0.0102514755
206	0x3ce1b6ae	0.027552929
207	0xbc3be2a4	-0.01146761
208	0xbc5a8780	-0.01333797
209	0xbb9c8426	-0.0047764955
210	0xbcb75abf	-0.022382138
211	0xbb31bcd4	-0.0027120607
212	0x3cc4b904	0.024014004
213	0xbb6362c1	-0.0034696313
214	0x3bbf84c3	0.005844684
215	0xbce54872	-0.027988646
216	0x3af3b995	0.0018594736
217	0xbd231a0e	-0.03981977
218	0xbc08d8e1	-0.008352489
219	0xbc32fcc3	-0.010924521
220	0xbd2add2b	-0.04171483
221	0xbd0f4088	-0.03497365
222	0x3b8d317f	0.004308879
223	0x3c81b578	0.015833601
224	0xbbe90c68	-0.0071120746
225	0x3c323402	0.010876657
226	0xb9cd8071	-0.00039196343
227	0x3b1c88e2	0.00238853
228	0x3c04fd91	0.008117096
229	0x3c8e722c	0.017388426
230	0x39ab6251	0.00032688913
231	0xbc88a908	-0.016682163
232	0x3c78acd9	0.015177929
233	0x3b6ba07b	0.0035953808
234	0x3d664e26	0.056226872
235	0x3cd754b1	0.026285501
236	0x3cc50f11	0.024055036
237	0x3b3efec9	0.0029143563
238	0xbb88eab3	-0.004178369
239	0x3be761ea	0.007061233
240	0x3cd887d2	0.026431952
241	0xbc361dff	-0.01111555
242	0x3c9c0fec	0.01905056
243	0x3c497df8	0.0122981
244	0x3c111b92	0.008856671
245	0xbd2953ea	-0.041339792
246	0xbcd504dd	-0.026003296
247	0xbc7f3c52	-0.015578346
248	0xbd0c1b76	-0.034205876
249	0x3cc64ffb	0.02420806
250	0x3c8ff4a0	0.017572701
251	0xbccc5ae6	-0.024945688
252	0xbba2b4e6	-0.0049654124
253	0xbcfbd0cf	-0.030739216
254	0x3b96505f	0.0045872177
255	0xbc2289cb	-0.009920548

fc1.bias f4 [128]
0	0x3cea6c94	0.028616227
1	0xbcab354b	-0.020899436
2	0xbc96169e	-0.018321332
3	0xbbdfc6e2	-0.0068291286
4	0x3cfcef71	0.030875893
5	0xbcd2dc40	-0.025739789
6	0x3d0c8b16	0.03431233
7	0x3ca60ae3	0.020268863
8	0x3cec4a9b	0.028844168
9	0xbc45d4f5	-0.012074699
10	0xbcf06051	-0.029342802
11	0x3c21f34f	0.009884669
12	0xbc41d7db	-0.011831249
13	0xbcc992ae	-0.024606075
14	0xbcde9c11	-0.027174028
15	0xbc21916f	-0.009861334
16	0x3a5e427d	0.00084785355
17	0x3c704fa4	0.014667425
18	0xba0bdb1d	-0.00053350796
19	0x3cde1e22	0.027113978
20	0xbc75ac57	-0.014994702
21	0xbd03909e	-0.03212034
22	0xbc079949	-0.008276292
23	0xbc316ecf	-0.0108296415
24	0xb9c7d180	-0.00038112327
25	0x3cc64d4f	0.024206785
26	0x3c96d848	0.018413678
27	0x3c5f62d5	0.013634403
28	0xbcadc97e	-0.021214243
29	0xbc1cdeeb	-0.009574632
30	0xbccf5f15	-0.025313893
31	0x3d053eee	0.032530718
32	0x3c9e3eac	0.019316994
33	0x3cce4b8e	0.025182512
34	0xbd09f8cc	-0.033684537
35	0xbcad5e6b	-0.021163186
36	0xbc29e3cc	-0.010369252
37	0x3ca503bf	0.020143388
38	0xbc1d3f0f	-0.009597554
39	0xbbe3471b	-0.0069359667
40	0x3c67944d	0.014134479
41	0x3c9aa74e	0.018878605
42	0x3c77ded1	0.015128807
43	0x3cd43f08	0.025908962
44	0xbcebf0f1	-0.028801413
45	0x3c8793f7	0.016550047
46	0xbc546ccf	-0.012965395
47	0xbce859ac	-0.028363071
48	0x3c8567d7	0.016284866
49	0x3cf05757	0.029338522
50	0x3c4a5bfb	0.012351031
51	0xbc4fe2ae	-0.012688322
52	0x3cce4f1d	0.025184209
53	0xbcb84bcb	-0.022497078
54	0x3d13fd3c	0.036130175
55	0x3c807754	0.0156819
56	0x3b666b2a	0.003515909
57	0xbce9a21f	-0.028519688
58	0x3cfbe154	0.030747093
59	0x3c8d0169	0.017212586
60	0x3c5ca621	0.013467343
61	0x3d095afb	0.03353403
62	0x3cbe2a0d	0.02321341
63	0xbcf0c801	-0.029392244
64	0x3b18ae9a	0.002329743
65	0xbbe18077	-0.0068817693
66	0xbc27e3c4	-0.010247175
67	0xbb42dd16	-0.0029733828
68	0xbd140988	-0.036141902
69	0xbc8b3a19	-0.016995477
70	0xbb1dea7a	-0.0024096058
71	0xbcae7847	-0.021297587
72	0x3d0c3573	0.03423066
73	0x3c9cc016	0.019134562
74	0x3c395a53	0.011313039
75	0xbcbe52d2	-0.023232851
76	0xbce9669e	-0.028491315
77	0xbb4f2271	-0.0031606222
78	0x3c5fc204	0.013657097
79	0x3c18ebfb	0.009333606
80	0x3d145e2d	0.036222626
81	0xbcf344b0	-0.029695839
82	0xbc566f3c	-0.013088044
83	0x3bf67511	0.0075212796
84	0xbcb146d3	-0.021640217
85	0x3d034bf5	0.03205486
86	0x3cd0f1b4	0.025505878
87	0xbc9b8871	-0.018985959
88	0x3c67cff2	0.014148699
89	0x397afa46	0.00023935092
90	0xbcd049dc	-0.025425844
91	0xbc14b253	-0.009075719
92	0x3ca336d2	0.019923601
93	0xbc4a0e62	-0.012332531
94	0x3d04e9a4	0.03244938
95	0xbcebda0f	-0.028790502
96	0xbd0af8e8	-0.03392878
97	0x3c843fcf	0.016143708
98	0xbc43bb92	-0.011946576
99	0x3c868b5e	0.016423877
100	0x3c3c67e6	0.011499381
101	0xbc909b08	-0.01765205
102	0xbc92e8a1	-0.017933192
103	0xbb4c5237	-0.0031176934
104	0x392cf7f8	0.00016495574
105	0xbd13de29	-0.03610054
106	0x3cd03437	0.025415523
107	0xbb02c6ba	-0.0019954876
108	0xbd0343f0	-0.032047212
109	0xbd00af57	-0.031417217
110	0xbd11ce05	-0.035596866
111	0xbc243d53	-0.010024386
112	0xbce2963f	-0.027659534
113	0xbc3c4095	-0.011490007
114	0x3be14e82	0.006875814
115	0xba73fa65	-0.0009307026
116	0xbcd19d97	-0.02558784
117	0xbb9f9c73	-0.004870945
118	0x3b3c6b3b	0.0028750438
119	0x3c9907e2	0.018680517
120	0xbbbc48b3	-0.005745971
121	0x3ce04f2d	0.027381504
122	0xbacf276f	-0.0015804599
123	0xba811454	-0.0009847977
124	0xbc7df96e	-0.015501363
125	0xbc821035	-0.015876869
126	0x3cf95fe3	0.03044123
127	0xbcdf8ddc	-0.027289324

fc2.weight f4 [64, 128]
0	0xbd4693a3	-0.04848064
1	0xbd924b70	-0.07143295
2	0xbd5564da	-0.052098133
3	0xbcdcade1	-0.02693838
4	0xbdb1637f	-0.086615555
5	0x3d166a2a	0.03672234
6	0x3d991ce9	0.07476217
7	0x3d90c209	0.07068259
8	0x3a4adfb3	0.0007739022
9	0x3bb42941	0.005498082
10	0x3d4c9a9d	0.04995214
11	0x3db7b3c0	0.089698315
12	0x3c6b247e	0.014351962
13	0xbce4f32b	-0.027947983
14	0x3c4379bd	0.01193088
15	0xbcb26623	-0.021777218
16	0x3c9a9d6c	0.018873893
17	0x3d9ae653	0.07563462
18	0x3d82f70c	0.06394777
19	0xbd47a928	-0.048745304
20	0x3d0d4f9c	0.03449975
21	0xbccab7bb	-0.024745813
22	0x3d101224	0.03517355
23	0x3d479fd6	0.048736416
24	0x3bf8e04b	0.007595097
25	0x3d81b24a	0.06332834
26	0xbcbc88a2	-0.02301437
27	0xbd59334c	-0.053027436
28	0x3db3ddbd	0.087825276
29	0xbd231fb3	-0.039825153
30	0xbd227b45	-0.03966834
31	0x3ca7f698	0.020503327
32	0xbc3f1e47	-0.0116649335
33	0x3cd1dd58	0.02561824
34	0xbdab0af0	-0.083516955
35	0xbd788d6a	-0.060681738
36	0xbd3ee1a6	-0.046601914
37	0xbd89f1e5	-0.06735591
38	0x3daf1aa6	0.08550005
39	0xbd9d2272	-0.076725855
40	0xbd6f37ca	-0.058402814
41	0xbd06cfd7	-0.032913055
42	0xbc566cd2	-0.013087468
43	0x3cdc138b	0.026864788
44	0x3d2361ec	0.039888307
45	0x3c9978a5	0.018734286
46	0x3d4824d6	0.048863254
47	0x3c447248	0.011990137
48	0x3c459f13	0.012061852
49	0xbd14eb30	-0.036357105
50	0xbd859ccf	-0.065240495
51	0xbc85d556	-0.016337078
52	0x3c44219c	0.011970904
53	0xbc3387d7	-0.01095768
54	0x3c8bf43a	0.01708423
55	0xbda73eed	-0.08166299
56	0x3d68a9ec	0.056802675
57	0x3d64d9da	0.055871822
58	0xbc1bdb40	-0.0095127225
59	0xbd845eaf	-0.06463372
60	0x3d0516e5	0.032492537
61	0x3d3e3a03	0.046442043
62	0xbd1af9f9	-0.03783605
63	0xbdac8158	-0.08423108
64	0xbd3bbb01	-0.045832638
65	0xbd8da6c9	-0.06916577
66	0x3d273d93	0.040830206
67	0x3c8ed3ae	0.017434921
68	0xbd832243	-0.06403019
69	0x3dab9a5e	0.083790526
70	0x3d21e232	0.039522357
71	0x3d002503	0.031285297
72	0x3d8a67f9	0.067581125
73	0xbd817378	-0.06320852
74	0x3cc398b3	0.023876524
75	0x3bc00471	0.0058599045
76	0x3d9a075b	0.07520934
77	0xbdab5d9f	-0.08367466
78	0xbd1939d2	-0.037408657
79	0xbc18367e	-0.009290336
80	0x3cbbeecc	0.022941016
81	0xbacaec2e	-0.0015481764
82	0x3ca7f691	0.020503314
83	0xbd35d0cc	-0.044388577
84	0xbcc3f2a0	-0.023919404
85	0x3d86bde6	0.06579189
86	0x3c2c9a27	0.0105348
87	0x3d67b41a	0.056568243
88	0x3c8c8a5b	0.017155817
89	0xbc2f1b2c	-0.010687631
90	0xbd43d72a	-0.04781262
91	0x3d4c82fa	0.049929596
92	0xbd30a22a	-0.0431234
93	0xbbe48eef	-0.006975047
94	0x3da151f0	0.078769565
95	0x3d1434dc	0.036183223
96	0x3d4f4a11	0.050607745
97	0xbb9e8fc5	-0.004838916
98	0xbd749233	-0.05970974
99	0xbca3ba15	-0.019986192
100	0x3cf9a2ad	0.030473078
101	0xbd186fe9	-0.0372161
102	0xbc78bf0b	-0.015182267
103	0xbd3e6269	-0.04648057
104	0x3d82827c	0.06372544
105	0x3d43e2b5	0.047823627
106	0x3d35be42	0.044370897
107	0x3da9e567	0.08295708
108	0xbd5b25c7	-0.053502824
109	0xbd27ab34	-0.040934756
110	0xbd0e1587	-0.0346885
111	0xbd64961e	-0.055807225
112	0xbd29032d	-0.041262794
113	0x3db1bcd4	0.08678594
114	0xbc1cac80	-0.009562612
115	0xbd9e8175	-0.07739536
116	0x3d459c24	0.04824461
117	0x3d53bb2c	0.051692173
118	0x3d413d78	0.04717776
119	0xbce1e611	-0.027575525
120	0x3b8d2921	0.0043078815
121	0x3b813be2	0.003943906
122	0xbca37bc9	-0.019956486
123	0xbd88e305	-0.066839255
124	0x3a883b4f	0.0010393652
125	0x3d4e5381	0.050372604
126	0xbd9dffcb	-0.07714804
127	0x3d5c6ab1	0.053812686
128	0xbae8e629	-0.0017768788
129	0xbcef59c0	-0.0292176
130	0x3dd26372	0.10272874
131	0x3e48f3d3	0.19624262
132	0x3cc98458	0.02459924
133	0x3e31abb7	0.1735066
134	0xbd8e4232	-0.069462195
135	0x3c24d2da	0.010060037
136	0xbd7e74fc	-0.062123284
137	0x3cf09a68	0.029370502
138	0xbdc08a29	-0.09401352
139	0xb9e8621f	-0.00044323594
140	0x3c324faf	0.010883256
141	0xbd41a812	-0.047279425
142	0x3da6f5d0	0.08152354
143	0x3ced974a	0.029002804
144	0xbc17607b	-0.009239311
145	0xbb9ea22d	-0.00484111
146	0xbdaa945e	-0.0832908
147	0x3da4194c	0.080126375
148	0xbd711d9c	-0.05886613
149	0xbd18b79c	-0.03728448
150	0xbbffee78	-0.00781041
151	0x3ddaacfe	0.10677527
152	0xbd0232db	-0.03178678
153	0x3d2f459a	0.042790987
154	0x3dbd3258	0.09238118
155	0x3da85361	0.08219028
156	0xbceadd6c	-0.028670035
157	0xbdab70f6	-0.08371155
158	0xbc2e7b20	-0.0106494725
159	0x3d32c5c4	0.043645635
160	0xbbb21a03	-0.0054352297
161	0xbd303107	-0.043015506
162	0x3db3c504	0.08777812
163	0x3b6bb4ba	0.0035965876
164	0x3dda0bed	0.10646806
165	0x3c372837	0.011179022
166	0x3d203965	0.039117236
167	0xbce47a5b	-0.027890375
168	0xbd5ab8d9	-0.05339894
169	0x3d65e633	0.05612774
170	0x3c894717	0.016757531
171	0xbd267037	-0.04063436
172	0x3ca24c6c	0.019811831
173	0xbcad6c3c	-0.021169774
174	0xbd93f156	-0.072237656
175	0xbd2c98ed	-0.04213803
176	0x3d8d9533	0.06913223
177	0x3d3d57d4	0.046226338
178	0x3a2c023d	0.0006561613
179	0x3e0f8376	0.14014992
180	0xbcbda24e	-0.023148682
181	0x3c62a957	0.013834319
182	0x3bc01941	0.0058623855
183	0xbd1b21a1	-0.037873868
184	0xbca596a4	-0.020213433
185	0x3de34b92	0.11098398
186	0x3d006561	0.031346682
187	0xbd27b8c1	-0.04094768
188	0xbd7a7821	-0.06114972
189	0xbd5c81b0	-0.053834617
190	0xbd66a19d	-0.05630647
191	0xbd273319	-0.040820215
192	0x3d359039	0.044326995
193	0xbb4af568	-0.0030969027
194	0xbd8c0a02	-0.06837846
195	0xbdb65f09	-0.08904845
196	0x3c36e1b8	0.011162214
197	0xbd7bf126	-0.061509274
198	0x3e20843f	0.15675448
199	0xbc71f92c	-0.01476888
200	0x3e2620df	0.16223477
201	0x3be0ec7c	0.0068641286
202	0x3d4dbb18	0.050227255
203	0x3cc9c575	0.024630288
204	0x3e0cfe2e	0.13768837
205	0x3df1c2a0	0.118047
206	0x3e053f5f	0.13012455
207	0xbc7032cf	-0.014660551
208	0xbd53851c	-0.051640615
209	0x3e24e758	0.16103876
210	0x3a0f10d1	0.0005457523
211	0xbdb60dfa	-0.088893846
212	0xbc5609a5	-0.013063823
213	0xbda9ed94	-0.082972676
214	0x3dd7bb43	0.10533764
215	0xbd0b3f9f	-0.03399622
216	0x3dd9412c	0.10608134
217	0xbdd7fd30	-0.105463386
218	0xbca90795	-0.020633498
219	0x3b4b4534	0.003101659
220	0x3d61600d	0.05502324
221	0xbd5d5ca7	-0.05404344
222	0xbd6eac79	-0.05826995
223	0x3da88683	0.08228781
224	0xbdeb8e94	-0.11501804
225	0x3d46a08b	0.04849295
226	0x3d981910	0.07426655
227	0x3c09135c	0.008366432
228	0xbd1ffb95	-0.039058287
229	0xbd180a3b	-0.03711913
230	0x3cc9822e	0.024598207
231	0xbdc6f17c	-0.09714028
232	0xbdbe49c0	-0.092914104
233	0x3da6f7a6	0.08152704
234	0xbcfca52c	-0.030840479
235	0xbc46cbc0	-0.012133539
236	0x3d9c6182	0.07635786
237	0xbdf82c0c	-0.12117776
238	0xbd14f653	-0.036367726
239	0x3db9a4c1	0.090646274
240	0xbcddbe08	-0.027068153
241	0x3dfa8ae0	0.122335196
242	0xbc0be0b2	-0.008537458
243	0xbd0bd297	-0.03413638
244	0xbdf383ed	-0.11890397
245	0x3dd82942	0.10554744
246	0x3cb63f9c	0.022247128
247	0x3dd8b816	0.105819866
248	0x3d0c0cbb	0.03419183
249	0xbc0764dd	-0.008263794
250	0xbdac4a8a	-0.08412655
251	0x3d87c770	0.066298366
252	0x3d1d7b54	0.038447693
253	0x3d4d81a6	0.05017247
254	0x3d08aaf3	0.033366155
255	0xbdf0f42e	-0.117653236

fc2.bias f4 [64]
0	0xbd9d39d2	-0.07677044
1	0x3d7db18f	0.06193691
2	0x3d97f2d5	0.074193634
3	0xbd88173b	-0.06645056
4	0xbd187146	-0.0372174
5	0x3d9797a2	0.074019685
6	0x3b6058fc	0.0034232726
7	0x3dbacc94	0.091210514
8	0x3dc4f68f	0.0961734
9	0xbd5eb63d	-0.054373015
10	0xbd6eb561	-0.058278445
11	0xbd4aab9a	-0.04948006
12	0xbdb5ca1b	-0.08876439
13	0xbd48a88c	-0.048988864
14	0x3d49b72b	0.04924695
15	0x3d22e190	0.039765894
16	0x3ccd8b66	0.025090884
17	0x3ca8bc08	0.020597473
18	0xbd9dc694	-0.077038914
19	0xbd53bb23	-0.05169214
20	0x3d627496	0.055286966
21	0x3d1bca45	0.038034696
22	0x3cd8b398	0.026452824
23	0xbbed9280	-0.00725013
24	0x3d5c785c	0.05382572
25	0xbdb38abd	-0.087666966
26	0x3b24d0e3	0.002514892
27	0xbd053bd7	-0.03252777
28	0x3c038e90	0.008029595
29	0xbd48548a	-0.048908748
30	0xbc6e6b4b	-0.014551948
31	0xbd22ec68	-0.039776236
32	0xbda926e9	-0.08259375
33	0x3dbeb199	0.09311218
34	0x3d28ee06	0.04124262
35	0xbd795e6b	-0.06088106
36	0xbd5c218e	-0.053742938
37	0xbd140957	-0.03614172
38	0xbce3a72c	-0.027789675
39	0x3d64e88f	0.055885848
40	0x3d5ae51e	0.05344116
41	0x3cc7c146	0.024384152
42	0xbd209e12	-0.039213248
43	0x3dac7959	0.08421583
44	0xbd64bc3b	-0.055843573
45	0xbd8d5ec9	-0.069028445
46	0x3d771c11	0.0603295
47	0x3c33be17	0.010970614
48	0x3c8a08c2	0.01684988
49	0x3b23a9eb	0.0024973105
50	0x3cbffe5d	0.02343672
51	0x3d2390e1	0.03993309
52	0xbd7f4f70	-0.062331617
53	0xbd9ac94d	-0.07557926
54	0x3d16f70f	0.036856707
55	0x3cd75867	0.02628727
56	0xbd1a8704	-0.037726417
57	0x39e8d6f0	0.0004441063
58	0x3d495409	0.049152408
59	0x3c0c3eae	0.008559866
60	0xbcbbeb58	-0.02293937
61	0x3db98945	0.09059385
62	0x3cbd51e5	0.02311034
63	0x3d3dcf91	0.04634053

fc3.weight f4 [10, 64]
0	0x3b2e08b7	0.0026555487
1	0x3e8f708c	0.28015554
2	0x3d17bf2d	0.037047554
3	0xbcacdeba	-0.021102298
4	0xbe490393	-0.1963027
5	0x3dfbb065	0.12289504
6	0x3db5a306	0.08868985
7	0x3e3071af	0.17230867
8	0xbe008bf1	-0.12553383
9	0x3dc6e496	0.09711568
10	0x3e1d9fd1	0.15392996
11	0xbdb8bf1f	-0.090208285
12	0x3d165661	0.03670347
13	0x3d8bb7f8	0.06822199
14	0x3d551d44	0.052029863
15	0x3e91fdf0	0.2851405
16	0x3d4643de	0.048404567
17	0xbe90003e	-0.28125185
18	0xbdce8fa2	-0.100859895
19	0x3e32cf07	0.17461787
20	0x3df508da	0.11964579
21	0xbb62777d	-0.0034556084
22	0x3e364ba6	0.17802295
23	0xbe34f069	-0.17669834
24	0xbeaaa250	-0.3332696
25	0x3e20aea6	0.15691623
26	0x3e03a098	0.1285423
27	0xbcde1578	-0.027109846
28	0xbbcbefc6	-0.0062236516
29	0xbe6eacd3	-0.23308115
30	0xbe12824b	-0.14307515
31	0xbe4451ae	-0.19171783
32	0x3de7618a	0.11297901
33	0xbd673f0d	-0.056456614
34	0x3cbe9671	0.023265095
35	0x3eadef65	0.33971706
36	0xbdf89bb4	-0.12139073
37	0x3e7ebe30	0.24877238
38	0x3e55b6b9	0.20870484
39	0x3b88b43b	0.004171876
40	0xbd9d564e	-0.07682477
41	0x3e3fafdd	0.1871943
42	0xbe85862c	-0.26078928
43	0x3d691851	0.056907956
44	0x3e0c4020	0.13696337
45	0x3ca45878	0.020061716
46	0x3c11e1ff	0.008903979
47	0xbd1dd3c5	-0.038532037
48	0x3ea0e82e	0.3142714
49	0x3b297ff5	0.0025863622
50	0xbe9c0f87	-0.30480596
51	0xbe684d67	-0.22685777
52	0x3db95e4b	0.09051188
53	0x3cb70bf1	0.022344561
54	0xbc82bde0	-0.01595968
55	0xbe82af48	-0.25524354
56	0x3d5a21ef	0.053255018
57	0x3cc83772	0.0244405
58	0xbe0d87ce	-0.13821337
59	0xbec32cec	-0.3812021
60	0x3e6fec60	0.23430014
61	0xbe2a57ed	-0.16635104
62	0x3d1912ee	0.03737157
63	0xbdcca1f0	-0.099918246
64	0x3dc16c7b	0.09444519
65	0xbcda1985	-0.026623497
66	0x3ea8038d	0.3281521
67	0x3da52e9b	0.0806553
68	0xbebcf2e8	-0.36904073
69	0xbea60772	-0.32427555
70	0x3d4992cc	0.049212262
71	0xbeaf6393	-0.34255657
72	0x3dabaf2e	0.08383022
73	0x3c2f6ea3	0.01070753
74	0x3b26d5dc	0.002545706
75	0x3d9178ae	0.07103096
76	0x3cdb5d72	0.026777957
77	0xbe03c725	-0.12868936
78	0xbc8de906	-0.017323028
79	0xbe7696ef	-0.24081014
80	0x3d4eecab	0.050518673
81	0x3e8f65a6	0.2800724
82	0x3dddef6a	0.1083668
83	0xbe880044	-0.26562703
84	0xbde4afa9	-0.11166317
85	0xbd938481	-0.072030075
86	0xbe6bb423	-0.23017935
87	0xbdd89078	-0.1057443
88	0x3e88e9a1	0.26740745
89	0x3d8dee8d	0.069302656
90	0xbdbb6ebe	-0.09151982
91	0x3deb7632	0.11497153
92	0xbc9c28b5	-0.01906238
93	0xbdc41f24	-0.09576252
94	0x3e4c4dff	0.19951628
95	0x3e7f7d3a	0.24950114
96	0x3dfb7f64	0.12280157
97	0xbdda0d68	-0.10647088
98	0x3d85e30f	0.065374486
99	0xbdb81593	-0.0898849
100	0xbdb1f382	-0.086890236
101	0x3e0f20e6	0.13977394
102	0x3e93e09f	0.2888231
103	0xbec1760a	-0.3778537
104	0xbc986828	-0.018604353
105	0xbe153997	-0.1457275
106	0xbe8c9651	-0.27458432
107	0x3dd55f86	0.1041861
108	0x3e2fc706	0.17165765
109	0x3d3ec947	0.04657867
110	0x3e0c5a04	0.13706213
111	0xbe2aed7c	-0.16692156
112	0x3db08a96	0.08620183
113	0xbaee8f19	-0.0018200605
114	0x3e38e7aa	0.18057123
115	0x3d34837b	0.044070702
116	0x3bffa64b	0.007801806
117	0x3ce82df9	0.028342234
118	0xbc9441bc	-0.01809775
119	0x3e7e324e	0.24823877
120	0x3df7b150	0.120943666
121	0xbea0c317	-0.31398842
122	0xbde04859	-0.10951299
123	0x3e0d8fdb	0.13824408
124	0xbdace697	-0.08442419
125	0xbcacab46	-0.021077763
126	0xbe8186a9	-0.2529805
127	0xbdfc8489	-0.123299666
128	0xbdbe4d37	-0.09292071
129	0xbcee4e7d	-0.02909016
130	0xbe3b4bb6	-0.182906
131	0x3d107366	0.035266303
132	0x3d99e896	0.07515065
133	0x3dab0d06	0.083520934
134	0xbd5c06fc	-0.0537176
135	0x3ed0190e	0.40644115
136	0xbe439e31	-0.19103314
137	0xbd806812	-0.0626985
138	0x3db4d3fc	0.08829495
139	0x3dab89aa	0.08375867
140	0xbcbff02c	-0.023429953
141	0x3d826d87	0.06368547
142	0x3dfbcee1	0.122953184
143	0x3dce1ffc	0.10064694
144	0x3e0fd329	0.14045395
145	0xbea70049	-0.32617405
146	0xbd33b94e	-0.043877892
147	0xbdd8ab3e	-0.10579537
148	0xbe48eb24	-0.19620949
149	0xbc9b6f94	-0.018974103
150	0x3d436aaf	0.047709163
151	0xbe0d6f18	-0.1381191
152	0xbdcdba89	-0.100453444
153	0x3c0f48fc	0.008745428
154	0xbe4fcd74	-0.20293218
155	0x3e9f5c5c	0.31125152
156	0x3d972dec	0.07381806
157	0x3e14feb9	0.14550294
158	0x3ebb629b	0.36598668
159	0x3e8b5607	0.2721407
160	0xbc16e300	-0.009209394
161	0xbd2e2c58	-0.04252276
162	0xbdd90206	-0.10596089
163	0x3f003df9	0.5009456
164	0x3e86a2da	0.2629612
165	0xbd93bb0c	-0.07213411
166	0x3bc308b6	0.005951966
167	0x3e510154	0.20410663
168	0xbdd0f04a	-0.102020815
169	0x3d8e269e	0.069409594
170	0xbcc48ca8	-0.023992851
171	0xbeddee43	-0.43345842
172	0x3e255d01	0.1614876
173	0x3db95244	0.09048894
174	0xbd7ffbe5	-0.062496085
175	0xbe2623cf	-0.16224597
176	0xbe874422	-0.2641917
177	0xbdafa06b	-0.08575519
178	0x3e11b44d	0.14228936
179	0x3e2ba4f1	0.16762139
180	0xbd9151a5	-0.070956506
181	0xbd886249	-0.066593714
182	0xbe7fd32a	-0.24982896
183	0x3e8fb1f1	0.28065446
184	0xbd30fb56	-0.043208443
185	0x3d93ae65	0.072109975
186	0xbd7003d2	-0.058597393
187	0x3abf4729	0.0014593351
188	0x3ea26d80	0.31724167
189	0x3cb47d6b	0.02203246
190	0xbeb97ba8	-0.36227155
191	0x3c81c0b0	0.01583895
192	0x3ce0ddf8	0.027449593
193	0x3dc1c414	0.09461227
194	0xbe9d8942	-0.30768782
195	0x3dcbf3ea	0.09958632
196	0x3e88f244	0.26747334
197	0xbe1eab0d	-0.15494938
198	0xbd53ff80	-0.051757336
199	0xbde390fe	-0.111116394
200	0x3e94b721	0.29045966
201	0xbdc5609a	-0.09637566
202	0x3d8ba5e5	0.06818751
203	0xbdca92f7	-0.098913126
204	0x3e88e754	0.2673899
205	0x3d1cc20e	0.038271002
206	0xbd9a4a16	-0.07533662
207	0xbc423ed8	-0.011855803
208	0xbe7142ca	-0.23560634
209	0xbe5a7d39	-0.21336831
210	0xbdcc771a	-0.09983654
211	0xbe5d9476	-0.21638665
212	0xbc224de5	-0.009906267
213	0x3d57373d	0.052542914
214	0x3eeddc22	0.4645701
215	0xbde02aac	-0.10945639
216	0x3ebaa14b	0.36451182
217	0x3d2de24b	0.042452138
218	0xbe4a53ea	-0.19758573
219	0x3ee222b0	0.4416709
220	0x3dd43ef5	0.103635706
221	0x3e644cfc	0.22294992
222	0xbe8c75ba	-0.27433568
223	0x3d315ccd	0.043301392
224	0xbdb90182	-0.09033491
225	0x3d748707	0.059699085
226	0x3dccf188	0.10007006
227	0x3d30ab52	0.043132134
228	0x3d9c0b9a	0.076194
229	0x3e2c35da	0.16817418
230	0xbdee33f8	-0.11631006
231	0xbe8f564d	-0.2799553
232	0x3da1b220	0.07895303
233	0xbe83efd1	-0.25768903
234	0x3def25e5	0.1167715
235	0xbdcda205	-0.100406684
236	0x3ee62b5e	0.44954962
237	0x3b4a7f40	0.00308986
238	0xbc42eb9a	-0.011896992
239	0x3e80e69e	0.25175947
240	0xbe0f20b7	-0.13977323
241	0x3dfde8a9	0.12397892
242	0x3df568aa	0.11982854
243	0xbe0d3849	-0.13791002
244	0xbdea618b	-0.11444386
245	0xbe05867c	-0.13039583
246	0xbe84e198	-0.25953364
247	0xbd2d1704	-0.042258278
248	0x3dcc8770	0.0998677
249	0xbe8dc98c	-0.2769283
250	0xbbe2c048	-0.0069198944
251	0xbd3d1f87	-0.046172645
252	0x3cfa77d4	0.030574717
253	0x3e6042a5	0.21900423
254	0xbd67307d	-0.056442726
255	0xbd589143	-0.052872907

fc3.bias f4 [10]
0	0xbd9d21f2	-0.0767249
1	0x3c29eeea	0.010371903
2	0x3d11f43a	0.035633303
3	0xbbe01304	-0.0068382043
4	0x3d8e04e7	0.06934529
5	0x3d0b0180	0.033936977
6	0xbd9f69d6	-0.077838585
7	0xbe23d986	-0.16000947
8	0xbbb03932	-0.005377912
9	0x3dc7f9b1	0.09764422
